['test', '-i', '../nanopore/data/chiron_data/eval/', '-t', '1', '-r', 'True', '-m', 'model4_weights.h5', '-s', '1000', '-ss', '100', '-o', 'score24April', '-g', '1']
1
Reading raw data
Number of segments used for testing: 18757
__________________________________________________________________________________________________
Layer (type)                    Output Shape         Param #     Connected to                     
==================================================================================================
input_1 (InputLayer)            (None, 300, 1)       0                                            
__________________________________________________________________________________________________
conv1d_2 (Conv1D)               (None, 300, 256)     512         input_1[0][0]                    
__________________________________________________________________________________________________
batch_normalization_2 (BatchNor (None, 300, 256)     1024        conv1d_2[0][0]                   
__________________________________________________________________________________________________
activation_2 (Activation)       (None, 300, 256)     0           batch_normalization_2[0][0]      
__________________________________________________________________________________________________
conv1d_3 (Conv1D)               (None, 300, 256)     196864      activation_2[0][0]               
__________________________________________________________________________________________________
batch_normalization_3 (BatchNor (None, 300, 256)     1024        conv1d_3[0][0]                   
__________________________________________________________________________________________________
activation_3 (Activation)       (None, 300, 256)     0           batch_normalization_3[0][0]      
__________________________________________________________________________________________________
conv1d_1 (Conv1D)               (None, 300, 256)     512         input_1[0][0]                    
__________________________________________________________________________________________________
conv1d_4 (Conv1D)               (None, 300, 256)     65792       activation_3[0][0]               
__________________________________________________________________________________________________
batch_normalization_1 (BatchNor (None, 300, 256)     1024        conv1d_1[0][0]                   
__________________________________________________________________________________________________
batch_normalization_4 (BatchNor (None, 300, 256)     1024        conv1d_4[0][0]                   
__________________________________________________________________________________________________
activation_1 (Activation)       (None, 300, 256)     0           batch_normalization_1[0][0]      
__________________________________________________________________________________________________
activation_4 (Activation)       (None, 300, 256)     0           batch_normalization_4[0][0]      
__________________________________________________________________________________________________
add_1 (Add)                     (None, 300, 256)     0           activation_1[0][0]               
                                                                 activation_4[0][0]               
__________________________________________________________________________________________________
activation_5 (Activation)       (None, 300, 256)     0           add_1[0][0]                      
__________________________________________________________________________________________________
conv1d_6 (Conv1D)               (None, 300, 256)     65792       activation_5[0][0]               
__________________________________________________________________________________________________
batch_normalization_6 (BatchNor (None, 300, 256)     1024        conv1d_6[0][0]                   
__________________________________________________________________________________________________
activation_7 (Activation)       (None, 300, 256)     0           batch_normalization_6[0][0]      
__________________________________________________________________________________________________
conv1d_7 (Conv1D)               (None, 300, 256)     196864      activation_7[0][0]               
__________________________________________________________________________________________________
batch_normalization_7 (BatchNor (None, 300, 256)     1024        conv1d_7[0][0]                   
__________________________________________________________________________________________________
activation_8 (Activation)       (None, 300, 256)     0           batch_normalization_7[0][0]      
__________________________________________________________________________________________________
conv1d_5 (Conv1D)               (None, 300, 256)     65792       activation_5[0][0]               
__________________________________________________________________________________________________
conv1d_8 (Conv1D)               (None, 300, 256)     65792       activation_8[0][0]               
__________________________________________________________________________________________________
batch_normalization_5 (BatchNor (None, 300, 256)     1024        conv1d_5[0][0]                   
__________________________________________________________________________________________________
batch_normalization_8 (BatchNor (None, 300, 256)     1024        conv1d_8[0][0]                   
__________________________________________________________________________________________________
activation_6 (Activation)       (None, 300, 256)     0           batch_normalization_5[0][0]      
__________________________________________________________________________________________________
activation_9 (Activation)       (None, 300, 256)     0           batch_normalization_8[0][0]      
__________________________________________________________________________________________________
add_2 (Add)                     (None, 300, 256)     0           activation_6[0][0]               
                                                                 activation_9[0][0]               
__________________________________________________________________________________________________
activation_10 (Activation)      (None, 300, 256)     0           add_2[0][0]                      
__________________________________________________________________________________________________
conv1d_10 (Conv1D)              (None, 300, 256)     65792       activation_10[0][0]              
__________________________________________________________________________________________________
batch_normalization_10 (BatchNo (None, 300, 256)     1024        conv1d_10[0][0]                  
__________________________________________________________________________________________________
activation_12 (Activation)      (None, 300, 256)     0           batch_normalization_10[0][0]     
__________________________________________________________________________________________________
conv1d_11 (Conv1D)              (None, 300, 256)     196864      activation_12[0][0]              
__________________________________________________________________________________________________
batch_normalization_11 (BatchNo (None, 300, 256)     1024        conv1d_11[0][0]                  
__________________________________________________________________________________________________
activation_13 (Activation)      (None, 300, 256)     0           batch_normalization_11[0][0]     
__________________________________________________________________________________________________
conv1d_9 (Conv1D)               (None, 300, 256)     65792       activation_10[0][0]              
__________________________________________________________________________________________________
conv1d_12 (Conv1D)              (None, 300, 256)     65792       activation_13[0][0]              
__________________________________________________________________________________________________
batch_normalization_9 (BatchNor (None, 300, 256)     1024        conv1d_9[0][0]                   
__________________________________________________________________________________________________
batch_normalization_12 (BatchNo (None, 300, 256)     1024        conv1d_12[0][0]                  
__________________________________________________________________________________________________
activation_11 (Activation)      (None, 300, 256)     0           batch_normalization_9[0][0]      
__________________________________________________________________________________________________
activation_14 (Activation)      (None, 300, 256)     0           batch_normalization_12[0][0]     
__________________________________________________________________________________________________
add_3 (Add)                     (None, 300, 256)     0           activation_11[0][0]              
                                                                 activation_14[0][0]              
__________________________________________________________________________________________________
activation_15 (Activation)      (None, 300, 256)     0           add_3[0][0]                      
__________________________________________________________________________________________________
conv1d_14 (Conv1D)              (None, 300, 256)     65792       activation_15[0][0]              
__________________________________________________________________________________________________
batch_normalization_14 (BatchNo (None, 300, 256)     1024        conv1d_14[0][0]                  
__________________________________________________________________________________________________
activation_17 (Activation)      (None, 300, 256)     0           batch_normalization_14[0][0]     
__________________________________________________________________________________________________
conv1d_15 (Conv1D)              (None, 300, 256)     196864      activation_17[0][0]              
__________________________________________________________________________________________________
batch_normalization_15 (BatchNo (None, 300, 256)     1024        conv1d_15[0][0]                  
__________________________________________________________________________________________________
activation_18 (Activation)      (None, 300, 256)     0           batch_normalization_15[0][0]     
__________________________________________________________________________________________________
conv1d_13 (Conv1D)              (None, 300, 256)     65792       activation_15[0][0]              
__________________________________________________________________________________________________
conv1d_16 (Conv1D)              (None, 300, 256)     65792       activation_18[0][0]              
__________________________________________________________________________________________________
batch_normalization_13 (BatchNo (None, 300, 256)     1024        conv1d_13[0][0]                  
__________________________________________________________________________________________________
batch_normalization_16 (BatchNo (None, 300, 256)     1024        conv1d_16[0][0]                  
__________________________________________________________________________________________________
activation_16 (Activation)      (None, 300, 256)     0           batch_normalization_13[0][0]     
__________________________________________________________________________________________________
activation_19 (Activation)      (None, 300, 256)     0           batch_normalization_16[0][0]     
__________________________________________________________________________________________________
add_4 (Add)                     (None, 300, 256)     0           activation_16[0][0]              
                                                                 activation_19[0][0]              
__________________________________________________________________________________________________
activation_20 (Activation)      (None, 300, 256)     0           add_4[0][0]                      
__________________________________________________________________________________________________
conv1d_18 (Conv1D)              (None, 300, 256)     65792       activation_20[0][0]              
__________________________________________________________________________________________________
batch_normalization_18 (BatchNo (None, 300, 256)     1024        conv1d_18[0][0]                  
__________________________________________________________________________________________________
activation_22 (Activation)      (None, 300, 256)     0           batch_normalization_18[0][0]     
__________________________________________________________________________________________________
conv1d_19 (Conv1D)              (None, 300, 256)     196864      activation_22[0][0]              
__________________________________________________________________________________________________
batch_normalization_19 (BatchNo (None, 300, 256)     1024        conv1d_19[0][0]                  
__________________________________________________________________________________________________
activation_23 (Activation)      (None, 300, 256)     0           batch_normalization_19[0][0]     
__________________________________________________________________________________________________
conv1d_17 (Conv1D)              (None, 300, 256)     65792       activation_20[0][0]              
__________________________________________________________________________________________________
conv1d_20 (Conv1D)              (None, 300, 256)     65792       activation_23[0][0]              
__________________________________________________________________________________________________
batch_normalization_17 (BatchNo (None, 300, 256)     1024        conv1d_17[0][0]                  
__________________________________________________________________________________________________
batch_normalization_20 (BatchNo (None, 300, 256)     1024        conv1d_20[0][0]                  
__________________________________________________________________________________________________
activation_21 (Activation)      (None, 300, 256)     0           batch_normalization_17[0][0]     
__________________________________________________________________________________________________
activation_24 (Activation)      (None, 300, 256)     0           batch_normalization_20[0][0]     
__________________________________________________________________________________________________
add_5 (Add)                     (None, 300, 256)     0           activation_21[0][0]              
                                                                 activation_24[0][0]              
__________________________________________________________________________________________________
activation_25 (Activation)      (None, 300, 256)     0           add_5[0][0]                      
__________________________________________________________________________________________________
bidirectional_1 (Bidirectional) (None, 300, 400)     731200      activation_25[0][0]              
__________________________________________________________________________________________________
batch_normalization_21 (BatchNo (None, 300, 400)     1600        bidirectional_1[0][0]            
__________________________________________________________________________________________________
bidirectional_2 (Bidirectional) (None, 300, 400)     961600      batch_normalization_21[0][0]     
__________________________________________________________________________________________________
batch_normalization_22 (BatchNo (None, 300, 400)     1600        bidirectional_2[0][0]            
__________________________________________________________________________________________________
bidirectional_3 (Bidirectional) (None, 300, 400)     961600      batch_normalization_22[0][0]     
__________________________________________________________________________________________________
batch_normalization_23 (BatchNo (None, 300, 400)     1600        bidirectional_3[0][0]            
__________________________________________________________________________________________________
time_distributed_1 (TimeDistrib (None, 300, 5)       2005        batch_normalization_23[0][0]     
__________________________________________________________________________________________________
time_distributed_2 (TimeDistrib (None, 300, 5)       0           time_distributed_1[0][0]         
__________________________________________________________________________________________________
the_labels (InputLayer)         (None, 48)           0                                            
__________________________________________________________________________________________________
input_length (InputLayer)       (None, 1)            0                                            
__________________________________________________________________________________________________
label_length (InputLayer)       (None, 1)            0                                            
__________________________________________________________________________________________________
ctc (Lambda)                    (None, 1)            0           time_distributed_2[0][0]         
                                                                 the_labels[0][0]                 
                                                                 input_length[0][0]               
                                                                 label_length[0][0]               
==================================================================================================
…
